models/FC4_1.model (torch_old, 564610 bytes, 5 tensors)

weight f4 [120, 1080]
0.014372873 -0.013234454 -0.0034735254 0.012430713 -0.027554272 0.01678348 -0.0066508823 0.01798733
0.0027106788 -0.0022999675 0.0072758896 0.00094770745 0.012941615 -0.013112444 -0.00051842903 -0.0020670274
0.0034878368 0.0006025192 0.025765069 0.010386875 -0.01217879 -0.018954633 -0.0033290188 -0.013676112
-0.0089910375 0.00050777406 0.017758636 0.019261068 -0.030608144 0.018890793 0.0075512487 0.028858177
0.02170596 -0.029399669 -0.027367514 -0.015486803 0.026586657 -0.0037873469 0.011311119 -0.012210402
0.029454837 -0.013093102 0.024270946 -0.00044522827 -0.015498698 0.016153594 -0.016416676 0.009740538
-0.009426108 -0.0031791958 -0.028679691 -0.015370155 0.01744066 -0.007777563 0.030605964 0.023516718
-0.002084703 -0.018123418 0.017005522 0.010872785 -0.020698702 0.020075211 0.020562397 0.025179874
-0.016064152 -0.005357264 -0.0005836064 0.0063851057 -0.02453066 -0.021197516 0.017051416 -0.0071114805
0.016449133 0.0004553807 0.009719714 0.007986136 0.010389565 0.015908904 -0.0290847 0.015331423
-0.020142095 -0.023943627 0.0021633056 -0.0062682778 0.018930279 -0.018833583 -0.027358646 0.02447348
-0.006151897 0.01850282 0.008447617 -0.022125479 0.008613294 0.0054000462 -0.019765954 -0.014885312
0.010380151 0.0072287847 -0.014240963 -0.008692883 0.028117508 -0.0058097756 0.018578539 0.01204782
-0.019475924 -0.024381233 0.02840503 0.002046036 0.019016823 0.007553722 0.011188103 0.021968305
0.029488917 -0.022082716 0.0049758106 0.022649508 0.021699222 0.021117983 -0.024212036 -0.02097763
-0.018961132 0.004265041 0.031935997 -0.020605968 0.016663343 -0.01657911 -0.028921816 -0.004824631
0.01581842 0.028927336 -0.017458059 0.006164063 0.027857514 0.017469091 0.019614002 0.023034181
0.018676056 0.00953734 -0.023705315 -0.024616428 -0.012912748 -0.0038602408 -0.01684211 0.008654064
0.009929197 -0.0060756044 0.011650089 0.009982572 0.017445918 0.021263769 -0.009125491 0.030237788
-0.0018618283 -0.0037941923 -0.02875957 -0.018330183 -0.017477456 -0.010765162 0.01792525 -0.009483267
-0.021366892 0.011731936 0.01194494 0.015872307 -0.014951965 0.007981339 -0.011470845 -0.004840641
-0.027168052 -0.013379618 -0.006997633 0.013047773 0.0051475363 0.005654745 0.030844688 0.030489605
0.020526255 0.0009996985 -0.021334166 0.023984805 -0.008952051 -0.0023742057 -0.024516998 -0.0076372214
-0.017883787 0.026354175 -0.026033247 -0.02160162 -0.0027273626 -0.014986406 0.01008259 -0.011571316
-0.012622579 0.00012983374 0.023171661 -0.021806274 0.01398115 0.020660853 0.028585372 -0.01996302
0.0068909004 -0.02318651 0.027468449 -0.012737259 0.019493967 -5.3518987e-05 -0.0028676423 0.0008037425
0.0045591677 0.015196739 0.0037405435 0.009258588 -0.025489062 0.02099192 0.02754408 0.023391793
0.022542085 -0.01942363 -0.0125357695 0.027820036 -0.024011638 0.027244167 -0.02144191 -0.022232652
0.014937525 -0.02184319 -0.007030836 0.023162873 0.022843279 0.029609187 -0.0055272933 -0.024854384
0.030903367 -0.0070430553 -0.011789347 0.0068554203 -0.02157111 0.02097299 0.01722594 -0.021862322
-0.02522926 -0.0022562733 0.014735419 -0.0023993803 -0.015483529 0.0002466254 -0.028586872 -0.019085452
-0.021502953 0.024877267 0.026156062 -0.0101830885 0.0038951386 0.012361608 0.003396166 -0.014661056
00000000: 337c 6b3c 53d5 58bc 16a4 63bb 30aa 4b3c
00000010: 7fb9 e1bc 827d 893c a5ef d9bb 2a5a 933c
00000020: a5a5 313b 0dbb 16bb 966a ee3b 926f 783a
00000030: 1109 543c 94d5 56bc 2fe7 07ba f776 07bb
00000040: 3194 643b 61f2 1d3a 4411 d33c b62d 2a3c
00000050: 8c89 47bc bf46 9bbc ab2b 5abb c511 60bc
00000060: 254f 13bc 241c 053a 8f7a 913c 63c9 9d3c
00000070: eebd fabc ddc0 9a3c 7770 f73b fc67 ec3c
00000080: b3d0 b13c 93d7 f0bc d631 e0bc 5cbc 7dbc
00000090: 43cc d93c 2335 78bb 4652 393c 230e 48bc
000000a0: 454b f13c 7384 56bc ddd3 c63c 876d e9b9
000000b0: 40ee 7dbc 8b54 843c 447c 86bc c796 1f3c
000000c0: f66f 1abc 0e5a 50bb acf1 eabc 1ad3 7bbc
000000d0: b7df 8e3c edda febb 5cb9 fa3c 22a6 c03c
000000e0: 839f 08bb 9077 94bc 2a4f 8b3c c423 323c
000000f0: 5390 a9bc c574 a43c 7972 a83c 0646 ce3c
00000100: f898 83bc fd8b afbb 2afd 18ba 263a d13b
00000110: 86f4 c8bc 6aa6 adbc 69af 8b3c 6c07 e9bb
00000120: 55c0 863c 2ac0 ee39 6f3f 1f3c 48d8 023c
00000130: fe38 2a3c 6453 823c 0943 eebc a630 7b3c
00000140: 0901 a5bc 6d25 c4bc 3fc6 0d3b 2066 cdbb
00000150: ac13 9b3c e348 9abc 3d1f e0bc 9c7c c83c
00000160: da95 c9bb 3a93 973c e067 0a3c 7e40 b5bc
00000170: c61e 0d3c dff2 b03b 36ec a1bc 86e1 73bc
00000180: 8211 2a3c 71df ec3b ee52 69bc 986c 0ebc
00000190: b056 e63c ee5f bebb 0532 983c 3864 453c
000001a0: f98b 9fbc 27bb c7bc aab1 e83c ca16 063b
000001b0: 2bc9 9b3c 3685 f73b 4e4e 373c e0f6 b33c
000001c0: be92 f13c d0e6 b4bc 200c a33b 768b b93c
000001d0: 91c2 b13c 9fff ac3c 5258 c6bc 47d9 abbc
000001e0: 6054 9bbc c2c1 8b3b 52cf 023d d9cd a8bc
000001f0: 9081 883c ead0 87bc 72ed ecbc f017 9ebb
00000200: a295 813c 05f9 ec3c 3404 8fbc e8fb c93b
00000210: 7135 e43c 571b 8f3c 8bad a03c 2eb2 bc3c
00000220: 87fe 983c 8142 1c3c a631 c2bc 64a8 c9bc
00000230: fe8f 53bc 18fc 7cbb 77f8 89bc c6c9 0d3c
00000240: 12ae 223c dd15 c7bb 04e0 3e3c f18d 233c
00000250: beea 8e3c 5b31 ae3c 1583 15bc 3db5 f73c
00000260: 9708 f4ba fca7 78bb 3199 ebbc 2e29 96bc
00000270: e22c 8fbc 5d60 30bc f9d7 923c b45f 1bbc
00000280: 9f09 afbc 4e37 403c b6b4 433c a406 823c
00000290: 16f9 74bc 29c4 023c 36f0 3bbc 3d9e 9ebb
000002a0: 898f debc 2f36 5bbc 664c e5bb 54c6 553c
000002b0: aaac a83b 704b b93b 00ae fc3c 56c5 f93c
000002c0: ad26 a83c 5108 833a fdc4 aebc c87b c43c
000002d0: a0ab 12bc 9098 1bbb dfd7 c8bc a841 fabb
000002e0: 0581 92bc b6e4 d73c ad43 d5bc e1f5 b0bc
000002f0: 8dbd 32bb 8b89 75bc 7331 253c 9e95 3dbc
00000300: efce 4ebc fb23 0839 7fd2 bd3c 12a3 b2bc
00000310: 3211 653c f340 a93c df2b ea3c 7d89 a3bc
00000320: 10cd e13b a3f1 bdbc 8305 e13c f0af 50bc
00000330: d0b1 9f3c 9379 60b8 0eef 3bbb 3fb2 523a
00000340: 1265 953b befb 783c e823 753b 55b1 173c
00000350: 70ce d0bc 3ff7 ab3c 1fa4 e13c 25a0 bf3c
00000360: 2eaa b83c 4e1e 9fbc d462 4dbc d8e6 e33c
00000370: 0eb4 c4bc 292f df3c f2a6 afbc 4021 b6bc
00000380: 85bc 743c 7df0 b2bc ed62 e6bb 11c0 bd3c
00000390: d421 bb3c f78e f23c 4c1e b5bb 6c9b cbbc
000003a0: 0f29 fd3c 6ec9 e6bb 1b28 41bc 6fa3 e03b
000003b0: e5b5 b0bc 8ccf ab3c 6a1d 8d3c 9d18 b3bc
000003c0: 98ad cebc fcdd 13bb d46c 713c ec3e 1dbb
000003d0: a1ae 7dbc 804d 8139 042f eabc 1859 9cbc
000003e0: f626 b0bc 69cb cb3c 3d45 d63c f8d6 26bc
000003f0: 9545 7f3b 5888 4a3c 3692 5e3b ed34 70bc

bias f4 [120]
0.022745062 -0.0073893704 -0.023370627 0.004761255 0.024841981 -0.023015484 0.028587058 0.014326476
0.0063621565 0.0076831323 0.010212309 0.02422236 0.0033912782 -0.018241003 0.029369468 -0.0027265323
0.026388662 0.0052138586 -0.008839426 0.023961073 0.0025710596 0.0046511963 -0.0014374336 0.02928817
0.02574643 0.017627569 0.026351104 0.022458991 -0.00484083 0.021086529 0.008567874 0.013651524
0.027909368 -0.005055192 -0.0040254393 -0.009713138 0.024480836 -0.022606848 -0.02924692 -0.026302803
0.0030227723 0.02844573 0.013566982 0.0056052804 -0.007097993 -0.0055992194 0.0019088718 0.005131739
-0.029159432 0.028354676 -0.016482705 0.008904298 -0.0258028 -0.023212336 -0.013771355 0.023300761
0.0032955115 0.0035339128 -0.027805585 0.012617541 -0.0033324445 0.013080214 0.011264825 0.0016314948
0.006045829 -0.00852287 -0.01423632 -0.0063705165 0.019787425 0.021061374 0.019483672 0.0007097643
-0.026670957 -0.012239335 0.0001938297 -0.03055642 0.022843445 0.02179373 -0.0046618297 -0.011175139
-0.02474396 -0.021357652 0.007641861 -0.008289336 -0.011030318 -0.028484123 -0.02872556 -0.031768564
0.005228358 0.014913835 0.0024234937 0.020544562 0.008955839 0.029447041 0.009325416 0.002178519
0.021900702 -0.007656199 0.00516575 0.022887673 -0.008144238 -0.02590778 0.02663512 -0.007946207
-0.029257625 0.026766498 -0.019067299 0.01887263 0.02831857 -0.02012632 0.004908346 -0.02303083
0.00030592986 -0.021124661 -0.0016463093 0.0018921181 0.0085854735 0.0020899351 3.209378e-05 0.020315569
00000000: da53 ba3c 8822 f2bb c273 bfbc 4d04 9c3b
00000010: 6981 cb3c f88a bcbc 682f ea3c 98b9 6a3c
00000020: a379 d03b c9c2 fb3b 8751 273c f96d c63c
00000030: 3540 5e3b 286e 95bc 3d98 f03c 9faf 32bb
00000040: 092d d83c 04d9 aa3b 3dd3 10bc 034a c43c
00000050: 397f 283b 1069 983b 4568 bcba bfed ef3c
00000060: 2dea d23c b167 903c 45de d73c ebfb b73c
00000070: d39f 9ebb a8bd ac3c 4560 0c3c a4aa 5f3c
00000080: 30a2 e43c 06a6 a5bb d5e7 83bb db23 1fbc
00000090: 098c c83c ff31 b9bc 3d97 efbc fa78 d7bc
000000a0: b419 463b 0507 e93c 0c48 5e3c 80ac b73b
000000b0: 4896 e8bb a879 b7bb 1c33 fa3a 2628 a83b
000000c0: c3df eebc 1148 e83c bd06 87bc 55e3 113c
000000d0: 6560 d3bc cc27 bebc 40a1 61bc 3de1 be3c
000000e0: 82f9 573b 3899 673b 8ac8 e3bc cdb9 4e3c
000000f0: 2465 5abb 654e 563c 1a90 383c e2d7 d53a
00000100: 171c c63b 82a3 0bbc 743f 69bc c4bf d0bb
00000110: 3d19 a23c e788 ac3c 399c 9f3c 7a0f 3a3a
00000120: 0d7d dabc 7e87 48bc c43e 4b39 7551 fabc
00000130: 2d22 bb3c c488 b23c 43c2 98bb ee17 37bc
00000140: d8b3 cabc 3ef6 aebc 9468 fa3b ffcf 07bc
00000150: 82b8 34bc 8957 e9bc de51 ebbc c11f 02bd
00000160: a552 ab3b 2859 743c 7ad3 1e3b 124d a83c
00000170: 83bb 123c ec3a f13c a1c9 183c 7cc5 0e3b
00000180: 1a69 b33c dae0 fabb 7445 a93b ee7e bb3c
00000190: 696f 05bc 8d3c d4bc e531 da3c cf30 02bc
000001a0: b0ad efbc 6a45 db3c 0633 9cbc c69a 9a3c
000001b0: 59fc e73c f4df a4bc 31d6 a03b 27ab bcbc
000001c0: 3665 a039 a00d adbc f9c8 d7ba f300 f83a
000001d0: 16aa 0c3c 4bf7 083b 6f9c 0638 d66c a63c

weight f4 [84, 120]
-0.055797078 0.050131146 -0.057037752 0.08437735 0.085313804 -0.03542655 0.012890142 -0.009094865
0.079646714 0.015167013 0.053278044 0.036111813 0.08543169 -0.06972762 -0.08851119 -0.006892804
-0.06778602 -0.07242189 -0.09065701 -0.028203776 0.021338502 0.07993931 -0.030435259 0.0409991
0.035834007 -0.076889604 0.060047586 -0.00057043997 0.05144914 0.022774525 -0.009076349 0.012094918
0.049777064 -0.08475468 -0.029659513 0.085856855 0.050486796 0.009228551 -0.00073046004 -0.024731178
0.036380026 -0.08808356 -0.08772831 0.05036272 -0.0093678245 -0.0012036401 0.01650496 -0.04089747
0.013956146 -0.0364039 0.033945825 -0.05066008 -0.013140706 0.078674026 0.077367134 -0.046154387
-0.052252185 -0.08865375 -0.08637092 0.014278768 0.050817914 0.03932347 0.024169195 0.019681292
0.019184563 0.07843048 0.025109028 0.07387992 -0.07841484 -0.044459574 0.07581578 0.083438456
-0.0734814 -0.0108009195 0.017656723 0.011887482 0.02465386 0.04942107 0.013522471 0.0017886369
-0.019137617 -0.056330502 -0.012987048 0.042619467 -0.02394272 0.044205233 0.080980845 -0.003212492
0.035753343 0.06319399 0.07445754 -0.079237975 -0.015395897 0.03641307 -0.0036236066 -0.02768439
0.059523303 -0.013687993 -0.006392397 0.06649383 0.007735105 -0.035692252 0.090832785 0.07723325
0.013847375 -0.03630532 -0.079285175 -0.087290704 0.06970363 -0.05741247 -0.086742155 0.029213952
0.04042758 0.07598085 0.020834517 0.017695887 -0.069574006 0.061139237 -0.014866213 -0.006601279
0.028507221 0.0040208767 0.07990564 0.016189521 0.068416245 0.083954364 0.033278972 -0.084223315
-0.062854305 -0.05041057 0.0017565896 0.031322498 0.06922899 -0.07816564 0.049845636 -0.05026317
-0.057489514 -0.012734398 0.0566255 -0.010420032 0.05748872 -0.03137759 -0.041359432 -0.021098906
0.004617103 -0.020667102 -0.005845396 0.045574125 -0.075486384 -0.081508026 -0.05739563 0.07364166
-0.0025858772 0.05092586 -0.0485869 0.078251295 -0.06270262 -0.033985473 0.08755375 0.02397109
0.031514637 0.08611924 -0.04516032 -0.015895294 -0.07515991 0.0041352618 -0.06178709 0.060857706
0.06277242 -0.038460758 0.056143697 0.079933666 -0.08867013 -0.058516417 -0.016207045 0.009745295
-0.024379073 0.044007715 0.087078266 -0.05189196 -0.04683781 0.046170298 -0.045331344 -0.031679373
0.04279773 -0.021978907 -0.08767904 0.073091075 -0.058211043 -0.05362487 -0.040382337 0.034948055
0.056658667 0.023253512 -0.09216606 0.018549906 -0.043744113 0.057745595 -0.015203877 0.07923877
-0.06238572 -0.057877287 -0.0721905 -0.013603599 -0.044047575 0.077388145 -0.03092141 0.017233709
0.030793108 0.0318905 0.074622355 0.05545514 0.082010224 0.008468394 -0.06721043 0.00907686
-0.015318535 0.021719366 -0.049008574 -0.06764874 -0.052533012 0.06856957 -0.07086911 -0.083396025
0.05966382 -0.014261855 0.033123963 -0.037568275 -0.039114974 -0.030704824 -0.08437716 -0.01309642
0.08520688 0.08286198 0.0310799 -0.08397039 -0.05842191 -0.049221165 -0.02341405 0.039827164
0.0576845 0.02037062 -0.013175536 -0.049721062 -0.009487296 0.06405073 -0.054594986 -0.042199112
0.0031551651 0.06220701 -0.05877512 0.07664515 0.08678313 -0.0021893731 0.041717734 0.08710479
00000000: 7a8b 64bd 5156 4d3d 6ba0 69bd 08ce ac3d
00000010: 01b9 ae3d 6e1b 11bd 2d31 533c a102 15bc
00000020: d11d a33d 107f 783c 143a 5a3d fbe9 133d
00000030: cff6 ae3d 5bcd 8ebd 5b45 b5bd 08dd e1bb
00000040: 66d3 8abd ee51 94bd 62aa b9bd 9b0b e7bc
00000050: 15ce ae3c 39b7 a33d 5d53 f9bc acee 273d
00000060: aec6 123d 4c78 9dbd 75f4 753d 9489 15ba
00000070: 55bc 523d a491 ba3c f8b4 14bc c329 463c
00000080: 09e3 4b3d dd93 adbd 82f8 f2bc b8d5 af3d
00000090: 3ecb 4e3d 5933 173c 587c 3fba 0a99 cabc
000000a0: 3903 153d 2765 b4bd e6aa b3bd 2449 4e3d
000000b0: 817b 19bc 76c3 9dba 6935 873c 1b84 27bd
000000c0: 52a8 643c 411c 15bd c70a 0b3d f280 4fbd
000000d0: 1e4c 57bc d91f a13d a972 9e3d 620c 3dbd
000000e0: 6306 56bd 1990 b5bd 3de3 b0bd 7ef1 693c
000000f0: 7226 503d a611 213d 7afe c53c a93a a13c
00000100: f228 9d3c 29a0 a03d 73b1 cd3c 5b4e 973d
00000110: f697 a0bd 3e1b 36bd 4e45 9b3d c8e1 aa3d
00000120: 6b7d 96bd 57f6 30bc d5a4 903c b7c3 423c
00000130: e4f6 c93c bf6d 4a3d 5b8d 5d3c b270 ea3a
00000140: 7ec6 9cbc d0ba 66bd a1c7 54bc c091 2e3d
00000150: 8623 c4bc 8c10 353d 49d9 a53d ac88 52bb
00000160: 1972 123d da6b 813d 327d 983d 8547 a2bd
00000170: 133f 7cbc df25 153d 087a 6dbb 60ca e2bc
00000180: b5ce 733d 9b43 60bc 5077 d1bb eb2d 883d
00000190: c476 fd3b 0a32 12bd 8a06 ba3d 772c 9e3d
000001a0: 1ae0 623c e3b4 14bd 4460 a2bd 78c5 b2bd
000001b0: c7c0 8e3d 5729 6bbd dfa5 b1bd 1952 ef3c
000001c0: 6497 253d d99b 9b3d 26ad aa3c f7f6 903c
000001d0: d17c 8ebd 236d 7a3d 6b91 73bc 8b4f d8bb
000001e0: fa87 e93c 8fc1 833b 91a5 a33d e39f 843c
000001f0: d11d 8c3d 44f0 ab3d 884f 083d 467d acbd
00000200: c2b9 80bd 507b 4ebd 5e3d e63a 054c 003d
00000210: eec7 8d3d 4f15 a0bd f02a 4c3d c1e0 4dbd
00000220: 207a 6bbd f0a3 50bc 24f0 673d c8b8 2abc
00000230: 4b79 6b3d ca85 00bd 8268 29bd 9dd7 acbc
00000240: 114b 973b 0e4e a9bc bc8a bfbb efab 3a3d
00000250: 9b98 9abd aeed a6bd ae17 6bbd 70d1 963d
00000260: d277 29bb a297 503d 0f03 47bd 3742 a03d
00000270: 3b6a 80bd 5a34 0bbd 614f b33d 055f c43c
00000280: 7e15 013d 495f b03d 07fa 38bd d936 82bc
00000290: 70ed 99bd 1781 873b 7614 7dbd ee45 793d
000002a0: d48e 803d 0789 1dbd eff6 653d 43b4 a33d
000002b0: af98 b5bd e9ae 6fbd a3c4 84bc bbaa 1f3c
000002c0: 9fb6 c7bc 6f41 343d 1756 b23d aa8c 54bd
000002d0: 01d9 3fbd 111d 3d3d 5cad 39bd 3bc2 01bd
000002e0: ac4c 2f3d 1c0d b4bc 1291 b3bd c6b0 953d
000002f0: b46e 6ebd c0a5 5bbd f367 25bd b125 0f3d
00000300: eb12 683d 267e be3c 8fc1 bcbd f9f5 973c
00000310: 072d 33bd a586 6c3d af19 79bc f047 a23d
00000320: 2b88 7fbd bc10 6dbd 9dd8 93bd a1e1 5ebc
00000330: 3b6b 34bd ad7d 9e3d e64e fdbc b52d 8d3c
00000340: d441 fc3c 9d9f 023d 9bd3 983d ee24 633d
00000350: faf4 a73d 05bf 0a3c 9fa5 89bd 1cb7 143c
00000360: 98fa 7abc d0ec b13c 37bd 48bd 6c8b 8abd
00000370: db2c 57bd 346e 8c3d d323 91bd 89cb aabd
00000380: 0d62 743d 8eaa 69bc feac 073d 31e1 19bd
00000390: 0637 20bd af88 fbbc efcd acbd 5e92 56bc
000003a0: f280 ae3d 8bb3 a93d 469b fe3c abf8 abbd
000003b0: d04b 6fbd 229c 49bd d2ce bfbc cf21 233d
000003c0: 9546 6c3d 49e0 a63c 34de 57bc 50a8 4bbd
000003d0: 9b70 1bbc 072d 833d fe9e 5fbd fad8 2cbd
000003e0: e3c6 4e3b c7cc 7e3d 2ebe 70bd 22f8 9c3d
000003f0: 5bbb b13d 967b 0fbb 37e0 2a3d ff63 b23d

bias f4 [84]
-0.033279914 -0.055067673 0.08623163 0.0902123 0.029221386 0.06594807 0.012987051 -0.016469039
-0.059414394 -0.046103194 -0.074860446 -0.01377528 -0.05538195 -0.08116742 -0.066399746 0.08736588
0.019981947 -0.039605863 0.08177768 0.03477489 -0.09805315 -0.054719675 -0.019133475 0.01008638
0.0006368746 -0.028476637 -0.053986475 0.04645195 -0.07788556 -0.04069644 -0.049041048 -0.064434655
-0.029364167 -0.005383209 -0.057225913 -0.049136057 0.057062835 -0.03459231 0.0017253705 0.06067257
0.059935343 0.051745497 0.009888878 0.071072996 -0.05414864 -0.06074955 0.019142626 0.021759419
0.03529489 -0.03181557 0.02048398 -0.006192081 0.063217774 -0.027762432 -0.021170113 -0.015760858
0.052306533 -0.044911385 -0.028700862 -0.046226677 -0.030897342 -0.07723027 -0.061476808 0.06111288
0.045337025 -0.071513765 -0.016055921 0.083288655 -0.08105601 0.014798843 -0.081641346 -0.028374666
-0.007890659 -0.065227956 0.07375244 -0.010612719 -0.052044295 -0.073821016 0.0035058192 0.07572778
-0.035329666 -0.010223387 0.07175299 0.021873774
00000000: 8550 08bd a48e 61bd 359a b03d 3ac1 b83d
00000010: b061 ef3c c80f 873d a4c7 543c 14ea 86bc
00000020: 825c 73bd b4d6 3cbd 6f50 99bd b6b1 61bc
00000030: 2fd8 62bd 1b3b a6bd 97fc 87bd e2ec b23d
00000040: 2eb1 a33c c239 22bd 0e7b a73d 1d70 0e3d
00000050: 17d0 c8bd bd21 60bd cebd 9cbc 5841 253c
00000060: eef3 263a d647 e9bc ec20 5dbd 6644 3e3d
00000070: 7782 9fbd 4fb1 26bd 44df 48bd 51f6 83bd
00000080: 1f8d f0bc a165 b0bb b865 6abd e442 49bd
00000090: b8ba 693d abb0 0dbd d425 e23a cd83 783d
000000a0: c37e 753d 16f3 533d f604 223c b88e 913d
000000b0: f7ca 5dbd 85d4 78bd ffd0 9c3c cf40 b23c
000000c0: 6091 103d 0b51 02bd 05ce a73c f1e6 cabb
000000d0: 5278 813d 0a6e e3bc f26c adbc ea1c 81bc
000000e0: 603f 563d 00f5 37bd 121e ebbc 2f58 3dbd
000000f0: 6c1c fdbc e72a 9ebd 1bcf 7bbd 8051 7a3d
00000100: 51b3 393d cf75 92bd b587 83bc 3e93 aa3d
00000110: b200 a6bd d976 723c 9433 a7bd fd71 e8bc
00000120: d347 01bc 3c96 85bd 850b 973d f8e0 2dbc
00000130: 662c 55bd 792f 97bd e3c1 653b 2b17 9b3d
00000140: d7b5 10bd fe7f 27bc 3bf3 923d a130 b33c

weight f4 [1, 84]
0.028647201 0.069134004 -0.009610639 -0.003587792 -0.013544755 0.016235411 0.033473633 -0.06204217
0.02221263 -0.06610874 0.006473552 -0.05251774 0.037762772 -0.060492948 -0.06815268 0.015135093
0.024055602 -0.015870651 -0.046562873 -0.020642383 -0.042199723 -0.019901061 0.051578976 0.028729886
0.02092055 -0.023500113 0.009657153 -0.033931937 -0.08308451 -0.016469786 -0.07666361 0.056186516
0.06892225 0.019079614 -0.0931331 -0.0032663238 0.041724008 0.033704486 0.01651502 0.009099887
-0.0014035711 0.038642187 -0.0050213044 0.03195063 -0.06535822 0.03964047 0.03259717 -0.012142099
0.05182334 0.073743366 -0.039364748 0.091492765 0.04259097 -0.00046109752 -0.021905893 -0.052433684
-0.0001418273 0.08352861 0.051661704 -0.03866969 0.03490123 0.07388572 0.045284268 -0.0025285874
0.10185544 0.106312215 0.059115328 0.045776486 -0.05753433 0.05568139 0.012207686 0.05011489
-0.043879725 -0.062535614 0.009235757 -0.04966564 -0.09270239 -0.08813367 0.076421715 0.034999557
0.017791336 -0.09306792 0.09258306 0.08477804
00000000: 89ad ea3c 2196 8d3d f175 1dbc 2921 6bbb
00000010: d2ea 5dbc 2000 853c a61b 093d ee1f 7ebd
00000020: 43f7 b53c 0564 87bd 1720 d43b d71c 57bd
00000030: 23ad 1a3d 74c7 77bd a293 8bbd 2ef9 773c
00000040: 4110 c53c 2b03 82bc b6b8 3ebd 371a a9bc
00000050: 9ed9 2cbd 8d07 a3bc 7a44 533d f05a eb3c
00000060: 9361 ab3c 4f83 c0bc 0939 1e3c 37fc 0abd
00000070: 3628 aabd a5eb 86bc d001 9dbd d523 663d
00000080: 1c27 8d3d da4c 9c3c 91bc bebd d20f 56bb
00000090: cbe6 2a3d b70d 0a3d 824a 873c b117 153c
000000a0: 08f8 b7ba 4547 1e3d c189 a4bb aade 023d
000000b0: 88da 85bd 0c5e 223d 9c84 053d a8ef 46bc
000000c0: b644 543d c306 973d ee3c 21bd 8f60 bb3d
000000d0: de73 2e3d 76bf f1b9 fd73 b3bc b4c4 56bd
000000e0: 7ab7 14b9 0c11 ab3d 399b 533d 1c64 1ebd
000000f0: 98f4 0e3d 6551 973d ff7b 393d a8b6 25bb
00000100: 9699 d03d 38ba d93d ea22 723d 2080 3b3d
00000110: 1ea9 6bbd 2b12 643d bf02 483c 4545 4d3d
00000120: 3abb 33bd ac12 80bd 9351 173c 336e 4bbd
00000130: c0da bdbd 6d7f b4bd fd82 9c3d b25b 0f3d
00000140: 23bf 913c 659a bebd 309c bd3d 1ca0 ad3d
