models/FC4_1.model (torch_old, 564617 bytes, 5 tensors)

weight f4 [120, 1080]
0	0x3c6b79bf	0.014372288
1	0xbc58d4ff	-0.013234376
2	0xbb63a604	-0.0034736404
3	0x3c4bac60	0.012431234
4	0xbce1b944	-0.027554162
5	0x3c897cec	0.0167832
6	0xbbd9eeb9	-0.0066507724
7	0x3c935a15	0.01798729
8	0x3b31a9a9	0.0027109182
9	0xbb16bc48	-0.0023000408
10	0x3bee693d	0.007275729
11	0x3a7870d2	0.0009477261
12	0x3c540829	0.012941399
13	0xbc56d4f5	-0.013112296
14	0xba07ded3	-0.00051830447
15	0xbb0772ce	-0.0020667794
16	0x3b64953a	0.0034878985
17	0x3a1ddaf9	0.0006021704
18	0x3cd3116a	0.02576514
19	0x3c2a2d2e	0.010386748
20	0xbc47898e	-0.012178792
21	0xbc9b46da	-0.018954683
22	0xbb5a2f6d	-0.0033292428
23	0xbc601156	-0.013676008
24	0xbc134e85	-0.0089908885
25	0x3a050f85	0.000507586
26	0x3c917ad5	0.017758766
27	0x3c9dc91c	0.019260935
28	0xbcfabe6a	-0.030608375
29	0x3c9ac17f	0.018891094
30	0x3bf76d19	0.0075508473
31	0x3cec6879	0.02885841
32	0x3cb1d04d	0.02170577
33	0xbcf0d6dd	-0.02939933
34	0xbce03202	-0.027367596
35	0xbc7dbd81	-0.015487076
36	0x3cd9cc70	0.026586741
37	0xbb783879	-0.0037875457
38	0x3c3953f4	0.01131152
39	0xbc480eae	-0.012210531
40	0x3cf14a82	0.029454473
41	0xbc5684a5	-0.013093148
42	0x3cc6d3f2	0.024270985
43	0xb9e96837	-0.0004451887
44	0xbc7ded2b	-0.01549844
45	0x3c84554f	0.01615396
46	0xbc867c23	-0.016416615
47	0x3c1f94da	0.009740079
48	0xbc1a70a1	-0.009426267
49	0xbb505970	-0.003179159
50	0xbceaf21f	-0.028679905
51	0xbc7bd237	-0.015369943
52	0x3c8edf28	0.017440394
53	0xbbfedb5f	-0.007777616
54	0x3cfab9b7	0.030606134
55	0x3cc0a586	0.023516428
56	0xbb089eb1	-0.002084654
57	0xbc947728	-0.018123224
58	0x3c8b4eea	0.017005403
59	0x3c32240c	0.010872852
60	0xbca99123	-0.02069909
61	0x3ca474ba	0.02007519
62	0x3ca871bf	0.02056205
63	0x3cce46c0	0.02518022
64	0xbc839859	-0.016063856
65	0xbbaf8efe	-0.005357622
66	0xba18f9ec	-0.0005835581
67	0x3bd13877	0.006384905
68	0xbcc8f3cf	-0.02453032
69	0xbcada673	-0.021197533
70	0x3c8baf87	0.017051471
71	0xbbe906f5	-0.007111425
72	0x3c86bf80	0.016448736
73	0x39eeca3b	0.0004554557
74	0x3c1f401e	0.009719877
75	0x3c02d920	0.007986337
76	0x3c2a38e6	0.010389542
77	0x3c8252d1	0.01590863
78	0xbcee4295	-0.029084483
79	0x3c7b2f6a	0.015331129
80	0xbca50199	-0.020142363
81	0xbcc42520	-0.023943484
82	0x3b0dc589	0.0021632633
83	0xbbcd6696	-0.0062683327
84	0x3c9b13d2	0.01893035
85	0xbc9a497b	-0.018833866
86	0xbce01f22	-0.027358595
87	0x3cc87d04	0.024473675
88	0xbbc997ae	-0.006152115
89	0x3c9793d8	0.018503115
90	0x3c0a681f	0.008447676
91	0xbcb5408c	-0.022125505
92	0x3c0d1d83	0.008612993
93	0x3bb0f3a5	0.0054001384
94	0xbca1ebca	-0.019765753
95	0xbc73e1ca	-0.014885375
96	0x3c2a1156	0.01038011
97	0x3becdc65	0.0072284215
98	0xbc695279	-0.014240854
99	0xbc0e6b6a	-0.008692602
100	0x3ce656fa	0.028117646
101	0xbbbe607a	-0.0058098407
102	0x3c98314a	0.01857819
103	0x3c456554	0.012048084
104	0xbc9f8c10	-0.019475967
105	0xbcc7bb95	-0.024381438
106	0x3ce8b192	0.028404985
107	0x3b0614ca	0.0020459169
108	0x3c9bc9a2	0.019017044
109	0x3bf785ef	0.007553808
110	0x3c374d48	0.011187859
111	0x3cb3f708	0.02196838
112	0x3cf191e1	0.029488506
113	0xbcb4e688	-0.022082582
114	0x3ba30dcb	0.0049760095
115	0x3cb98b5b	0.022649458
116	0x3cb1c255	0.02169911
117	0x3cacffce	0.02111807
118	0xbcc658c2	-0.024212245
119	0xbcabd899	-0.020977305
120	0xbc9b54ba	-0.0189613
121	0x3b8bbfc3	0.004264803
122	0x3d02cefc	0.031935677
123	0xbca8cd07	-0.020605577
124	0x3c8881e9	0.016663508
125	0xbc87d12b	-0.016579231
126	0xbceced6c	-0.028921805
127	0xbb9e18df	-0.004824742
128	0x3c819605	0.015818605
129	0x3cecf931	0.028927417
130	0xbc8f0454	-0.017458118
131	0x3bc9fba7	0.0061640325
132	0x3ce4352f	0.027857391
133	0x3c8f1b75	0.017469147
134	0x3ca0ae02	0.019614223
135	0x3cbcb221	0.023034157
136	0x3c98fe40	0.018675923
137	0x3c1c4210	0.009537235
138	0xbcc231d0	-0.023705393
139	0xbcc9a7b0	-0.024616092
140	0xbc539082	-0.012912871
141	0xbb7cfa38	-0.003860129
142	0xbc89f8c3	-0.016842252
143	0x3c0dc81c	0.008653667
144	0x3c22b011	0.009929673
145	0xbbc7164a	-0.006075655
146	0x3c3edf80	0.011649966
147	0x3c238ea6	0.0099827405
148	0x3c8ee97e	0.017445322
149	0x3cae325a	0.021264244
150	0xbc1583e5	-0.009125684
151	0x3cf7b56c	0.030237876
152	0xbaf40db0	-0.0018619802
153	0xbb78a6ec	-0.003794129
154	0xbceb98f9	-0.028759466
155	0xbc9629d5	-0.018330494
156	0xbc8f2d0c	-0.017477535
157	0xbc306057	-0.010765157
158	0x3c92d85e	0.017925438
159	0xbc1b5eca	-0.009483049
160	0xbcaf0a49	-0.021367209
161	0x3c403740	0.011731923
162	0x3c43b492	0.011944907
163	0x3c820645	0.01587213
164	0xbc74f7ee	-0.014951689
165	0x3c02c3de	0.007981269
166	0xbc3befff	-0.011470794
167	0xbb9ea0e6	-0.004840958
168	0xbcde9055	-0.027168432
169	0xbc5b3425	-0.013379131
170	0xbbe54c1f	-0.0069975997
171	0x3c55c622	0.013047727
172	0x3ba8aea1	0.0051477705
173	0x3bb947db	0.005654318
174	0x3cfcae2f	0.030844776
175	0x3cf9c527	0.030489517
176	0x3ca8269a	0.02052622
177	0x3a830d23	0.0009998422
178	0xbcaec5f1	-0.02133462
179	0x3cc47c5e	0.023985084
180	0xbc12ad61	-0.00895247
181	0xbb1b9694	-0.0023740875
182	0xbcc8d81e	-0.024517115
183	0xbbfa3fd0	-0.0076370016
184	0xbc9280d8	-0.017883703
185	0x3cd7e4b6	0.026354175
186	0xbcd54366	-0.026033115
187	0xbcb0f6e0	-0.021602094
188	0xbb32bdca	-0.0027273768
189	0xbc7588a0	-0.014986187
190	0x3c252fdf	0.010082214
191	0xbc3d95ff	-0.011571406
192	0xbc4eceb2	-0.012622522
193	0x39085576	0.00013001807
194	0x3cbdd2e3	0.023171848
195	0xbcb2a2e9	-0.021806197
196	0x3c6510d3	0.013981062
197	0x3ca94053	0.020660555
198	0x3cea2c05	0.028585443
199	0xbca3891d	-0.019962842
200	0x3be1cc65	0.006890821
201	0xbcbdf1b5	-0.023186544
202	0x3ce1058b	0.027468463
203	0xbc50b020	-0.012737304
204	0x3c9fb1fb	0.019494047
205	0xb861a17b	-5.379457e-05
206	0xbb3bee3a	-0.002867593
207	0x3a52b4a2	0.00080377806
208	0x3b956298	0.0045588724
209	0x3c78fdac	0.015197199
210	0x3b751bd0	0.003740061
211	0x3c17b1f4	0.009258736
212	0xbcd0ce8e	-0.025489118
213	0x3cabf7ed	0.020992244
214	0x3ce1a438	0.027544126
215	0x3cbfa014	0.02339176
216	0x3cb8aa54	0.022542156
217	0xbc9f1edb	-0.019423893
218	0xbc4d6224	-0.012535606
219	0x3ce3e6cf	0.027820019
220	0xbcc4b3bd	-0.024011487
221	0x3cdf2ee5	0.02724404
222	0xbcafa7a0	-0.021442235
223	0xbcb6209d	-0.022232348
224	0x3c74bbc3	0.014937344
225	0xbcb2f044	-0.021843083
226	0xbbe6629c	-0.007030798
227	0x3cbdbf50	0.023162514
228	0x3cbb21ec	0.022843324
229	0x3cf28f2e	0.029609289
230	0xbbb51e4f	-0.0055272947
231	0xbccb9b68	-0.024854377
232	0x3cfd2900	0.03090334
233	0xbbe6ca63	-0.0070431693
234	0xbc412741	-0.011789144
235	0x3be0a261	0.0068552946
236	0xbcb0b60f	-0.021571187
237	0x3cabcf33	0.020972824
238	0x3c8d1d41	0.017225863
239	0xbcb317cc	-0.021861933
240	0xbcceae4a	-0.025229592
241	0xbb13dd51	-0.0022562335
242	0x3c716afe	0.014734982
243	0xbb1d38eb	-0.0023990225
244	0xbc7dadd3	-0.015483337
245	0x39812b7d	0.000246372
246	0xbcea2f1e	-0.02858692
247	0xbc9c5a35	-0.019085983
248	0xbcb026ae	-0.021502819
249	0x3ccbcc88	0.024877802
250	0x3cd64600	0.026156425
251	0xbc26d643	-0.01018292
252	0x3b7f3b16	0.003894513
253	0x3c4a8840	0.012361586
254	0x3b5e9178	0.0033961218
255	0xbc7034ae	-0.014660997

bias f4 [120]
0	0x3cba538f	0.022744922
1	0xbbf220e6	-0.0073891757
2	0xbcbf73e6	-0.023370694
3	0x3b9c0457	0.0047612595
4	0x3ccb814f	0.024841933
5	0xbcbc8ba4	-0.023015805
6	0x3cea2ef3	0.02858684
7	0x3c6abace	0.014326764
8	0x3bd076b8	0.0063618086
9	0x3bfbc080	0.00768286
10	0x3c275107	0.0102121895
11	0x3cc66e2e	0.02422246
12	0x3b5e4939	0.0033918156
13	0xbc956e7e	-0.018241163
14	0x3cf09801	0.029369356
15	0xbb32a992	-0.0027261716
16	0x3cd82d66	0.026388835
17	0x3baad89b	0.0052138097
18	0xbc10d348	-0.008839436
19	0x3cc449b6	0.02396093
20	0x3b28817d	0.0025711947
21	0x3b98674b	0.0046509854
22	0xbabc6c28	-0.0014375495
23	0x3cefee04	0.0292883
24	0x3cd2eba3	0.025747126
25	0x3c906732	0.017627332
26	0x3cd7ddff	0.026350973
27	0x3cb7fc37	0.022459133
28	0xbb9e9f4a	-0.004840766
29	0x3cacbe2a	0.021086771
30	0x3c0c62fc	0.008568522
31	0x3c5faad0	0.013651565
32	0x3ce4a26c	0.02790948
33	0xbba5a475	-0.005055005
34	0xbb83e633	-0.0040252446
35	0xbc1f24c3	-0.0097133545
36	0x3cc88b0d	0.024480367
37	0xbcb93042	-0.022606019
38	0xbcef9837	-0.029247386
39	0xbcd7796b	-0.026303014
40	0x3b461bd9	0.0030229
41	0x3ce90668	0.028445438
42	0x3c5e4823	0.013567003
43	0x3bb7abb2	0.0056051845
44	0xbbe8959f	-0.0070979143
45	0xbbb77a86	-0.0055993227
46	0x3afa4072	0.0019092693
47	0x3ba828ed	0.005131832
48	0xbceedfe4	-0.029159494
49	0x3ce84798	0.028354451
50	0xbc8707a5	-0.016483137
51	0x3c11e479	0.00890457
52	0xbcd360bc	-0.025802962
53	0xbcbe2762	-0.023212139
54	0xbc61a0bf	-0.013771235
55	0x3cbee13b	0.023300758
56	0x3b57f3d0	0.003295172
57	0x3b679808	0.003533842
58	0xbce3c87b	-0.027805557
59	0x3c4ebc42	0.012618126
60	0xbb5a6433	-0.0033323884
61	0x3c564eaf	0.013080283
62	0x3c389029	0.011264839
63	0x3ad5bdb6	0.0016307149
64	0x3bc61975	0.006045515
65	0xbc0ba4ae	-0.008523149
66	0xbc693e36	-0.014236024
67	0xbbd0bdb0	-0.0063702688
68	0x3ca21896	0.019787114
69	0x3cac8765	0.021060655
70	0x3c9f9c09	0.019483583
71	0x3a3a04ba	0.0007096041
72	0xbcda7d86	-0.026671182
73	0xbc488836	-0.0122395065
74	0x394b76e6	0.00019403882
75	0xbcfa51a8	-0.030556515
76	0x3cbb2290	0.02284363
77	0x3cb288c9	0.02179374
78	0xbb98c38e	-0.004661984
79	0xbc3716f0	-0.011174902
80	0xbccab33c	-0.024743669
81	0xbcaef5f5	-0.021357516
82	0x3bfa6407	0.0076413187
83	0xbc07cf2a	-0.008289138
84	0xbc34b799	-0.011030101
85	0xbce95739	-0.028483974
86	0xbceb5232	-0.028725717
87	0xbd021fad	-0.03176849
88	0x3bab554e	0.005228675
89	0x3c745816	0.014913579
90	0x3b1ed4ed	0.00242358
91	0x3ca84d08	0.020544544
92	0x3c12bf68	0.008956768
93	0x3cf13a66	0.029446792
94	0x3c18c7b4	0.009324957
95	0x3b0ec87f	0.0021786985
96	0x3cb369ca	0.02190103
97	0xbbfae060	-0.007656142
98	0x3ba94587	0.005165759
99	0x3cbb7fa3	0.02288801
100	0xbc0571bf	-0.008144795
101	0xbcd43c27	-0.02590759
102	0x3cda320e	0.026635196
103	0xbc02314e	-0.0079463255
104	0xbcefacae	-0.029257145
105	0x3cdb45f7	0.02676676
106	0xbc9c315a	-0.019066501
107	0x3c9a9adf	0.018872676
108	0x3ce7fdca	0.028319258
109	0xbca4e005	-0.020126352
110	0x3ba0d163	0.0049077733
111	0xbcbcaa31	-0.023030372
112	0x39a08cf6	0.00030622602
113	0xbcad0d89	-0.021124618
114	0xbad7db38	-0.001646853
115	0x3af80526	0.0018922433
116	0x3c0caa37	0.008585504
117	0x3b08f3ad	0.0020897195
118	0x38063447	3.1996777e-05
119	0x3ca66d53	0.020315802

weight f4 [84, 120]
0	0xbd648b83	-0.05579711
1	0x3d4d5669	0.050131235
2	0xbd69a06e	-0.057037763
3	0x3dacce05	0.084377326
4	0x3daeb906	0.08531384
5	0xbd111b5e	-0.03542649
6	0x3c533183	0.0128902225
7	0xbc1502d8	-0.009094916
8	0x3da31da1	0.07964636
9	0x3c787f8c	0.015167128
10	0x3d5a3a1a	0.053278066
11	0x3d13ea03	0.036111843
12	0x3daef6f0	0.08543193
13	0xbd8ecd34	-0.06972733
14	0xbdb54548	-0.08851105
15	0xbbe1de3e	-0.0068929484
16	0xbd8ad34d	-0.06778584
17	0xbd9451ec	-0.07242188
18	0xbdb9aa5b	-0.09065696
19	0xbce70bac	-0.028203808
20	0x3caece1c	0.021338515
21	0x3da3b73b	0.07993933
22	0xbcf95386	-0.030435335
23	0x3d27eea4	0.04099907
24	0x3d12c70f	0.03583437
25	0xbd9d784a	-0.07688959
26	0x3d75f47f	0.060047623
27	0xba158bd6	-0.0005704736
28	0x3d52bc9d	0.051449407
29	0x3cba91a1	0.02277452
30	0xbc14b43a	-0.0090761725
31	0x3c4628c1	0.012094677
32	0x3d4be2f4	0.049776986
33	0xbdad93cf	-0.08475458
34	0xbcf2f8b6	-0.02965961
35	0x3dafd5b1	0.0858568
36	0x3d4ecb61	0.050486926
37	0x3c1732eb	0.009228448
38	0xba3f7c88	-0.00073046284
39	0xbcca9750	-0.024730355
40	0x3d150340	0.036380053
41	0xbdb4651a	-0.08808346
42	0xbdb3aae4	-0.08772829
43	0x3d4e48f8	0.050362557
44	0xbc197c6b	-0.009368042
45	0xba9dc612	-0.0012037179
46	0x3c87358d	0.016505027
47	0xbd278406	-0.04089739
48	0x3c64aa33	0.013956594
49	0xbd151c3f	-0.03640389
50	0x3d0b0b3b	0.033946257
51	0xbd4f80ee	-0.050660066
52	0xbc574c7b	-0.013140793
53	0x3da11fd5	0.078673996
54	0x3d9e72b1	0.077367194
55	0xbd3d0c63	-0.04615439
56	0xbd560674	-0.052252248
57	0xbdb5901c	-0.08865377
58	0xbdb0e342	-0.08637096
59	0x3c69f0a5	0.0142785655
60	0x3d502675	0.050817925
61	0x3d21117d	0.03932332
62	0x3cc5fe62	0.02416915
63	0x3ca13aab	0.019681295
64	0x3c9d28db	0.01918452
65	0x3da0a02e	0.07843052
66	0x3ccdb1af	0.02510914
67	0x3d974e4d	0.073879816
68	0xbda097e2	-0.07841469
69	0xbd361b3f	-0.044459578
70	0x3d9b4547	0.07581573
71	0x3daae1c3	0.08343842
72	0xbd967d68	-0.07348138
73	0xbc30f460	-0.010800451
74	0x3c90a493	0.0176566
75	0x3c42c447	0.0118876165
76	0x3cc9f7db	0.02465432
77	0x3d4a6d93	0.049420904
78	0x3c5d8e31	0.013522671
79	0x3aea6e56	0.0017885666
80	0xbc9cc6a3	-0.019137686
81	0xbd66bad4	-0.056330517
82	0xbc54c7bd	-0.012987074
83	0x3d2e91ca	0.042619504
84	0xbcc42347	-0.023942603
85	0x3d351131	0.044205848
86	0x3da5d94a	0.08098085
87	0xbb5288dc	-0.0032125032
88	0x3d1271d3	0.035753082
89	0x3d816c35	0.06319467
90	0x3d987d2b	0.07445749
91	0xbda24789	-0.079238005
92	0xbc7c3dc6	-0.015395587
93	0x3d1525ec	0.03641312
94	0xbb6d7a35	-0.003623617
95	0xbce2c985	-0.027683983
96	0x3d73ceae	0.059523277
97	0xbc604389	-0.013687977
98	0xbbd176fb	-0.0063923574
99	0x3d882de4	0.06649378
100	0x3bfd76a0	0.0077350885
101	0xbd123169	-0.035691652
102	0x3dba06b5	0.090833105
103	0x3d9e2c67	0.07723313
104	0x3c62dfcc	0.013847303
105	0xbd14b4e8	-0.03630534
106	0xbda2604a	-0.07928522
107	0xbdb2c591	-0.08729089
108	0x3d8ec0c3	0.0697036
109	0xbd6b2970	-0.057412565
110	0xbdb1a5d8	-0.0867421
111	0x3cef519f	0.029213725
112	0x3d259764	0.04042758
113	0x3d9b9bd1	0.07598079
114	0x3caaad5c	0.020834617
115	0x3c90f73f	0.017696021
116	0xbd8e7cd5	-0.069574036
117	0x3d7a6cdf	0.061138984
118	0xbc739114	-0.014866132
119	0xbbd84eaa	-0.0066011744
120	0x3ce98834	0.02850733
121	0x3b83c395	0.004021118
122	0x3da3a591	0.07990564
123	0x3c84a001	0.016189577
124	0x3d8c1def	0.06841647
125	0x3dabf054	0.08395448
126	0x3d08502c	0.033279583
127	0xbdac7d44	-0.0842233
128	0xbd80ba08	-0.06285483
129	0xbd4e7b6d	-0.050410677
130	0x3ae63807	0.0017564305
131	0x3d004cd1	0.031323258
132	0x3d8dc7f7	0.06922906
133	0xbda01582	-0.07816602
134	0x3d4c2a35	0.04984494
135	0xbd4de162	-0.05026377
136	0xbd6b79d2	-0.057489224
137	0xbc50a532	-0.012734698
138	0x3d67f03a	0.056625582
139	0xbc2ab8b5	-0.010420014
140	0x3d6b799f	0.057489034
141	0xbd0085dc	-0.03137766
142	0xbd296808	-0.041358978
143	0xbcacd73c	-0.021098725
144	0x3b974930	0.004616879
145	0xbca94dd3	-0.020666992
146	0xbbbf8a44	-0.00584534
147	0x3d3aabd7	0.045574035
148	0xbd9a9850	-0.075485826
149	0xbda6edd0	-0.08150828
150	0xbd6b17a7	-0.057395604
151	0x3d96d15e	0.07364152
152	0xbb298082	-0.002586395
153	0x3d509787	0.050925758
154	0xbd47039a	-0.04858742
155	0x3da04210	0.078251004
156	0xbd8069e8	-0.062702
157	0xbd0b348f	-0.03398567
158	0x3db34f56	0.087553665
159	0x3cc45f40	0.0239712
160	0x3d0115c8	0.031514913
161	0x3db05ecc	0.08611831
162	0xbd38f963	-0.04515971
163	0xbc8236e8	-0.015895322
164	0xbd99ed6a	-0.07515986
165	0x3b878570	0.00413578
166	0xbd7d1470	-0.06178707
167	0x3d7945f3	0.060857724
168	0x3d808f05	0.06277279
169	0xbd1d890b	-0.038460772
170	0x3d65f6a7	0.05614343
171	0x3da3b497	0.07993429
172	0xbdb598c7	-0.088670306
173	0xbd6faefd	-0.05851649
174	0xbc84c4e4	-0.016207166
175	0x3c1fa9d7	0.009745083
176	0xbcc7b628	-0.024378851
177	0x3d344163	0.04400767
178	0x3db25630	0.08707845
179	0xbd548cb0	-0.051891983
180	0xbd3fd8d2	-0.046837635
181	0x3d3d1d3c	0.04617046
182	0xbd39ad56	-0.04533132
183	0xbd01c25a	-0.03167949
184	0x3d2f4c78	0.042797536
185	0xbcb40e04	-0.02197934
186	0xbdb390f1	-0.0876788
187	0x3d95b10c	0.0730916
188	0xbd6e6eba	-0.058211066
189	0xbd5ba5db	-0.05362497
190	0xbd256799	-0.040382
191	0x3d0f25af	0.034948047
192	0x3d6812d0	0.056658566
193	0x3cbe7f11	0.02325395
194	0xbdbcc161	-0.092165716
195	0x3c97f5a2	0.018549744
196	0xbd332c2a	-0.04374329
197	0x3d6c86fc	0.05774592
198	0xbc79190f	-0.015203728
199	0x3da247f0	0.07923877
200	0xbd7f8898	-0.062386125
201	0xbd6d109a	-0.05787716
202	0xbd93d886	-0.07219033
203	0xbc5ee088	-0.013603337
204	0xbd346b41	-0.044047598
205	0x3d9e7d85	0.07738785
206	0xbcfd4e71	-0.030921193
207	0x3c8d2dbd	0.017233724
208	0x3cfc41bf	0.030793069
209	0x3d02a021	0.031890992
210	0x3d98d3ac	0.07462248
211	0x3d6324e5	0.055455107
212	0x3da7f527	0.08201056
213	0x3c0abef4	0.008468378
214	0xbd89a582	-0.06721021
215	0x3c14b9dc	0.009077515
216	0xbc7afa33	-0.015318441
217	0x3cb1ec69	0.021719174
218	0xbd48bd89	-0.04900888
219	0xbd8a8b67	-0.0676487
220	0xbd572caf	-0.052532848
221	0x3d8c6e75	0.068570055
222	0xbd91242f	-0.070869796
223	0xbdaacb72	-0.08339585
224	0x3d746202	0.05966378
225	0xbc69a8e7	-0.014261461
226	0x3d07ac31	0.0331232
227	0xbd19e18a	-0.037568606
228	0xbd2036f5	-0.03911491
229	0xbcfb8825	-0.030704567
230	0xbdacce0e	-0.08437739
231	0xbc569515	-0.013097067
232	0x3dae80df	0.08520674
233	0x3da9b373	0.0828618
234	0x3cfe9b0d	0.031079793
235	0xbdabf868	-0.08396989
236	0xbd6f4c60	-0.058422446
237	0xbd499cf4	-0.049221948
238	0xbcbfcef8	-0.02341412
239	0x3d232244	0.0398276
240	0x3d6c46a5	0.05768456
241	0x3ca6e083	0.020370727
242	0xbc57de34	-0.013175536
243	0xbd4ba855	-0.04972108
244	0xbc1b7073	-0.009487259
245	0x3d832d0a	0.06405075
246	0xbd5f9efd	-0.054594982
247	0xbd2cd8fb	-0.042199116
248	0x3b4ec72e	0.0031551826
249	0x3d7eccc5	0.062207002
250	0xbd70be1e	-0.05877506
251	0x3d9cf824	0.076645166
252	0x3db1bb57	0.0867831
253	0xbb0f7be7	-0.002189392
254	0x3d2ae030	0.041717708
255	0x3db26400	0.0871048

bias f4 [84]
0	0xbd085002	-0.033279426
1	0xbd618eb9	-0.05506775
2	0x3db09a44	0.08623174
3	0x3db8c149	0.09021241
4	0x3cef615a	0.029221226
5	0x3d870fa0	0.06594777
6	0x3c54c513	0.012986439
7	0xbc86e982	-0.016468767
8	0xbd735c8f	-0.059414443
9	0xbd3cd87c	-0.046104893
10	0xbd995020	-0.07485986
11	0xbc61aea3	-0.013774547
12	0xbd62d78f	-0.055381354
13	0xbda63be2	-0.081168905
14	0xbd87fc17	-0.06639879
15	0x3db2ecd9	0.08736581
16	0x3ca3b0eb	0.019981822
17	0xbd223a27	-0.03960624
18	0x3da77b0f	0.081777684
19	0x3d0e6ff1	0.034774724
20	0xbdc8d026	-0.09805326
21	0xbd6021dc	-0.05471979
22	0xbc9cbb0f	-0.019132165
23	0x3c253c6f	0.010085209
24	0x3a26a6c5	0.0006357248
25	0xbce94d9b	-0.028479388
26	0xbd5d205a	-0.05398593
27	0x3d3e4442	0.046451814
28	0xbd9f82ad	-0.07788596
29	0xbd26b123	-0.040696274
30	0xbd48de1e	-0.049039952
31	0xbd83f64b	-0.06443461
32	0xbcf08bd9	-0.02936356
33	0xbbb05fc7	-0.0053825113
34	0xbd6a654f	-0.05722552
35	0xbd4942b7	-0.04913589
36	0x3d69bac0	0.057062864
37	0xbd0db0b4	-0.034592345
38	0x3ae22a84	0.0017255102
39	0x3d7883e7	0.060672667
40	0x3d757ec0	0.05993533
41	0x3d53f2e7	0.05174532
42	0x3c220474	0.009888757
43	0x3d918e98	0.07107276
44	0xbd5dcb3c	-0.054148898
45	0xbd78d40c	-0.0607491
46	0x3c9cd0a2	0.019142453
47	0x3cb2407f	0.02175927
48	0x3d109131	0.035294715
49	0xbd0250fb	-0.03181551
50	0x3ca7ce24	0.020484038
51	0xbbcade5c	-0.006191058
52	0x3d81782e	0.063217506
53	0xbce36dea	-0.027762372
54	0xbcad6ce6	-0.02117009
55	0xbc811a8a	-0.015759725
56	0x3d563f6b	0.052306574
57	0xbd37f3d7	-0.04491028
58	0xbceb1ed4	-0.028701223
59	0xbd3d58d6	-0.0462273
60	0xbcfd1d35	-0.030897716
61	0xbd9e2a64	-0.07722929
62	0xbd7bcfb2	-0.06147737
63	0x3d7a5172	0.06111283
64	0x3d39aff1	0.045333806
65	0xbd927572	-0.07151307
66	0xbc8386d8	-0.01605551
67	0x3daa9335	0.08328859
68	0xbda60113	-0.08105674
69	0x3c727857	0.014799199
70	0xbda733e6	-0.08164196
71	0xbce872a3	-0.028374976
72	0xbc01461a	-0.007890249
73	0xbd859628	-0.06522781
74	0x3d970b85	0.07375244
75	0xbc2ddc16	-0.010611555
76	0xbd552d02	-0.052044876
77	0xbd972f5b	-0.07382079
78	0x3b65c65d	0.003506086
79	0x3d9b173e	0.075727925
80	0xbd10b666	-0.0353302
81	0xbc2780e9	-0.010223606
82	0x3d92f3c3	0.071754
83	0x3cb32e33	0.021872615

weight f4 [1, 84]
0	0x3ceaaffe	0.028648373
1	0x3d8d9739	0.06913609
2	0xbc1d758c	-0.009610545
3	0xbb6b3551	-0.0035889933
4	0xbc5de566	-0.013543462
5	0x3c84fd1c	0.016233973
6	0x3d091ba1	0.033473615
7	0xbd7e1fe6	-0.06204214
8	0x3cb5f738	0.02221261
9	0xbd87645f	-0.06610941
10	0x3bd4156b	0.00647228
11	0xbd571cce	-0.052517705
12	0x3d1aad36	0.037762843
13	0xbd77c7bd	-0.06049322
14	0xbd8b936d	-0.068152286
15	0x3c77f80b	0.015134822
16	0x3cc510c3	0.024055844
17	0xbc820234	-0.015870191
18	0xbd3eb890	-0.04656273
19	0xbca91b72	-0.02064297
20	0xbd2cd9a0	-0.04219973
21	0xbca30938	-0.019901857
22	0x3d5343d9	0.051578376
23	0x3ceb5b4d	0.028730059
24	0x3cab61f7	0.020920737
25	0xbcc0808f	-0.023498802
26	0x3c1e3afa	0.009657616
27	0xbd0afb77	-0.03393122
28	0xbdaa2822	-0.08308436
29	0xbc86e980	-0.016468763
30	0xbd9d019a	-0.07666321
31	0x3d662407	0.056186702
32	0x3d8d26f6	0.06892197
33	0x3c9c4c52	0.019079361
34	0xbdbebc8a	-0.09313305
35	0xbb560c6c	-0.0032661213
36	0x3d2ae693	0.0417238
37	0x3d0a0dae	0.033704452
38	0x3c874979	0.016514527
39	0x3c151e00	0.009101391
40	0xbab7efb1	-0.0014033226
41	0x3d1e46ce	0.038641743
42	0xbba48a05	-0.005021336
43	0x3d02e02b	0.031952064
44	0xbd85db1d	-0.06535933
45	0x3d225d81	0.039639954
46	0x3d0584db	0.032597404
47	0xbc46ee25	-0.012141739
48	0x3d5445df	0.051824447
49	0x3d9706e9	0.07374365
50	0xbd213d08	-0.039364845
51	0x3dbb60ce	0.091493234
52	0x3d2e7340	0.04259038
53	0xb9f199ce	-0.00046081695
54	0xbcb373d0	-0.02190581
55	0xbd56c3e1	-0.0524329
56	0xb9159436	-0.0001426496
57	0x3dab0ff6	0.08352654
58	0x3d539c65	0.05166282
59	0xbd1e639b	-0.03866921
60	0x3d0ef530	0.034901798
61	0x3d975169	0.07388575
62	0x3d397ac2	0.045283087
63	0xbb25b922	-0.002528735
64	0x3dd09a53	0.10185685
65	0x3dd9ba2e	0.10631214
66	0x3d72228d	0.05911498
67	0x3d3b7f40	0.045775652
68	0xbd6ba90e	-0.05753427
69	0x3d64126d	0.055681635
70	0x3c480283	0.01220763
71	0x3d4d4581	0.050115112
72	0xbd33bb61	-0.04387987
73	0xbd8012a5	-0.06253556
74	0x3c175107	0.009235627
75	0xbd4b6e2d	-0.04966562
76	0xbdbddabe	-0.092702374
77	0xbdb47f60	-0.08813357
78	0x3d9c82f8	0.07642168
79	0x3d0f5c40	0.035000086
80	0x3c91bf05	0.01779128
81	0xbdbe9a86	-0.09306817
82	0x3dbd9d2a	0.09258492
83	0x3dada01b	0.08477803
